…
2025-12-20 01:15:50,848 - INFO - Loading dataset (forcing RGB)...
2025-12-20 01:15:51,019 - INFO - Classes: ['fist', 'none', 'palm', 'thumbs_up']
2025-12-20 01:15:51,267 - INFO - Class Weights: {0: np.float64(0.9816176470588235), 1: np.float64(1.5170454545454546), 2: np.float64(0.7281818181818182), 3: np.float64(1.0539473684210525)}
2025-12-20 01:15:52,254 - INFO - Model: "sequential"
+--------------------------------------------------------------------------+
| Layer (type)                    | Output Shape           |       Param # |
|---------------------------------+------------------------+---------------|
| rescaling (Rescaling)           | (None, 128, 128, 3)    |             0 |
|---------------------------------+------------------------+---------------|
| random_flip (RandomFlip)        | (None, 128, 128, 3)    |             0 |
|---------------------------------+------------------------+---------------|
| random_rotation                 | (None, 128, 128, 3)    |             0 |
| (RandomRotation)                |                        |               |
|---------------------------------+------------------------+---------------|
| random_zoom (RandomZoom)        | (None, 128, 128, 3)    |             0 |
|---------------------------------+------------------------+---------------|
| mobilenetv2_1.00_128            | (None, 4, 4, 1280)     |     2,257,984 |
| (Functional)                    |                        |               |
|---------------------------------+------------------------+---------------|
| global_average_pooling2d        | (None, 1280)           |             0 |
| (GlobalAveragePooling2D)        |                        |               |
|---------------------------------+------------------------+---------------|
| dropout (Dropout)               | (None, 1280)           |             0 |
|---------------------------------+------------------------+---------------|
| dense (Dense)                   | (None, 256)            |       327,936 |
|---------------------------------+------------------------+---------------|
| dropout_1 (Dropout)             | (None, 256)            |             0 |
|---------------------------------+------------------------+---------------|
| dense_1 (Dense)                 | (None, 4)              |         1,028 |
+--------------------------------------------------------------------------+
 Total params: 2,586,948 (9.87 MB)
 Trainable params: 328,964 (1.25 MB)
 Non-trainable params: 2,257,984 (8.61 MB)

2025-12-20 01:15:52,255 - INFO - Phase 1: Training Head Layers...
2025-12-20 01:16:44,241 - INFO - Phase 2: Fine-Tuning Base Model...
2025-12-20 01:18:05,805 - INFO - Model saved to hand_gesture.keras
